…
  File "/home/reuel/anaconda3/lib/python3.8/site-packages/IPython/terminal/embed.py", line 16, in <module>
    from IPython.terminal.interactiveshell import TerminalInteractiveShell
  File "/home/reuel/anaconda3/lib/python3.8/site-packages/IPython/terminal/interactiveshell.py", line 34, in <module>
    from prompt_toolkit.formatted_text import PygmentsTokens
ModuleNotFoundError: No module named 'prompt_toolkit.formatted_text'
Using: cuda
----------------------------------------------------------------
        Layer (type)               Output Shape         Param #
================================================================
            Conv2d-1         [-1, 16, 254, 254]             448
              ReLU-2         [-1, 16, 254, 254]               0
            Conv2d-3         [-1, 16, 252, 252]           2,320
              ReLU-4         [-1, 16, 252, 252]               0
         MaxPool2d-5         [-1, 16, 126, 126]               0
            Conv2d-6         [-1, 32, 124, 124]           4,640
              ReLU-7         [-1, 32, 124, 124]               0
            Conv2d-8         [-1, 32, 122, 122]           9,248
              ReLU-9         [-1, 32, 122, 122]               0
        MaxPool2d-10           [-1, 32, 61, 61]               0
           Conv2d-11           [-1, 64, 59, 59]          18,496
             ReLU-12           [-1, 64, 59, 59]               0
           Conv2d-13           [-1, 64, 57, 57]          36,928
             ReLU-14           [-1, 64, 57, 57]               0
        MaxPool2d-15           [-1, 64, 28, 28]               0
           Conv2d-16          [-1, 128, 26, 26]          73,856
             ReLU-17          [-1, 128, 26, 26]               0
           Conv2d-18          [-1, 128, 24, 24]         147,584
             ReLU-19          [-1, 128, 24, 24]               0
        MaxPool2d-20          [-1, 128, 12, 12]               0
           Conv2d-21          [-1, 256, 10, 10]         295,168
             ReLU-22          [-1, 256, 10, 10]               0
           Conv2d-23            [-1, 256, 8, 8]         590,080
             ReLU-24            [-1, 256, 8, 8]               0
        MaxPool2d-25            [-1, 256, 4, 4]               0
          Flatten-26                 [-1, 4096]               0
          Dropout-27                 [-1, 4096]               0
           Linear-28                  [-1, 256]       1,048,832
             ReLU-29                  [-1, 256]               0
          Dropout-30                  [-1, 256]               0
           Linear-31                   [-1, 10]           2,570
================================================================
Total params: 2,230,170
Trainable params: 2,230,170
Non-trainable params: 0
----------------------------------------------------------------
Input size (MB): 0.75
Forward/backward pass size (MB): 59.16
Params size (MB): 8.51
Estimated Total Size (MB): 68.42
----------------------------------------------------------------
Epoch: [0], Test Loss: 2.2907, Accuracy: 0.29, Time: 18.04 sec
…
Epoch: [47], Test Loss: 0.5057, Accuracy: 0.82, Time: 18.06 sec


Epoch: [48], Test Loss: 0.4970, Accuracy: 0.82, Time: 18.06 sec


Epoch: [49], Test Loss: 0.4901, Accuracy: 0.82, Time: 18.07 sec


Epoch: [50], Test Loss: 0.4938, Accuracy: 0.83, Time: 18.16 sec


  File "Task1.py", line 35
    torchvision.transforms.ToTensor()
              ^
SyntaxError: invalid syntax
Using: cuda
----------------------------------------------------------------
        Layer (type)               Output Shape         Param #
================================================================
            Conv2d-1         [-1, 16, 298, 298]             448
              ReLU-2         [-1, 16, 298, 298]               0
            Conv2d-3         [-1, 16, 296, 296]           2,320
              ReLU-4         [-1, 16, 296, 296]               0
         MaxPool2d-5         [-1, 16, 148, 148]               0
            Conv2d-6         [-1, 32, 146, 146]           4,640
              ReLU-7         [-1, 32, 146, 146]               0
            Conv2d-8         [-1, 32, 144, 144]           9,248
              ReLU-9         [-1, 32, 144, 144]               0
        MaxPool2d-10           [-1, 32, 72, 72]               0
           Conv2d-11           [-1, 64, 70, 70]          18,496
             ReLU-12           [-1, 64, 70, 70]               0
           Conv2d-13           [-1, 64, 68, 68]          36,928
             ReLU-14           [-1, 64, 68, 68]               0
        MaxPool2d-15           [-1, 64, 34, 34]               0
           Conv2d-16          [-1, 128, 32, 32]          73,856
             ReLU-17          [-1, 128, 32, 32]               0
           Conv2d-18          [-1, 128, 30, 30]         147,584
             ReLU-19          [-1, 128, 30, 30]               0
        MaxPool2d-20          [-1, 128, 15, 15]               0
           Conv2d-21          [-1, 256, 13, 13]         295,168
             ReLU-22          [-1, 256, 13, 13]               0
           Conv2d-23          [-1, 256, 11, 11]         590,080
             ReLU-24          [-1, 256, 11, 11]               0
        MaxPool2d-25            [-1, 256, 5, 5]               0
          Flatten-26                 [-1, 6400]               0
          Dropout-27                 [-1, 6400]               0
           Linear-28                  [-1, 256]       1,638,656
             ReLU-29                  [-1, 256]               0
          Dropout-30                  [-1, 256]               0
           Linear-31                   [-1, 10]           2,570
================================================================
Total params: 2,819,994
Trainable params: 2,819,994
Non-trainable params: 0
----------------------------------------------------------------
Input size (MB): 1.03
Forward/backward pass size (MB): 82.67
Params size (MB): 10.76
Estimated Total Size (MB): 94.46
----------------------------------------------------------------
Epoch: [0], Test Loss: 2.3126, Accuracy: 0.00, Time: 16.61 sec
…
