Using: cuda
----------------------------------------------------------------
        Layer (type)               Output Shape         Param #
================================================================
            Conv2d-1         [-1, 16, 198, 198]             448
              ReLU-2         [-1, 16, 198, 198]               0
            Conv2d-3         [-1, 16, 196, 196]           2,320
              ReLU-4         [-1, 16, 196, 196]               0
         MaxPool2d-5           [-1, 16, 98, 98]               0
            Conv2d-6           [-1, 32, 96, 96]           4,640
              ReLU-7           [-1, 32, 96, 96]               0
            Conv2d-8           [-1, 32, 94, 94]           9,248
              ReLU-9           [-1, 32, 94, 94]               0
        MaxPool2d-10           [-1, 32, 47, 47]               0
           Conv2d-11           [-1, 64, 45, 45]          18,496
             ReLU-12           [-1, 64, 45, 45]               0
           Conv2d-13           [-1, 64, 43, 43]          36,928
             ReLU-14           [-1, 64, 43, 43]               0
        MaxPool2d-15           [-1, 64, 21, 21]               0
           Conv2d-16          [-1, 128, 19, 19]          73,856
             ReLU-17          [-1, 128, 19, 19]               0
           Conv2d-18          [-1, 128, 17, 17]         147,584
             ReLU-19          [-1, 128, 17, 17]               0
        MaxPool2d-20            [-1, 128, 8, 8]               0
           Conv2d-21            [-1, 256, 6, 6]         295,168
             ReLU-22            [-1, 256, 6, 6]               0
           Conv2d-23            [-1, 256, 4, 4]         590,080
             ReLU-24            [-1, 256, 4, 4]               0
        MaxPool2d-25            [-1, 256, 2, 2]               0
          Flatten-26                 [-1, 1024]               0
          Dropout-27                 [-1, 1024]               0
           Linear-28                  [-1, 256]         262,400
             ReLU-29                  [-1, 256]               0
          Dropout-30                  [-1, 256]               0
           Linear-31                   [-1, 10]           2,570
================================================================
Total params: 1,443,738
Trainable params: 1,443,738
Non-trainable params: 0
----------------------------------------------------------------
Input size (MB): 0.46
Forward/backward pass size (MB): 35.04
Params size (MB): 5.51
Estimated Total Size (MB): 41.00
----------------------------------------------------------------
Epoch: [0], Test Loss: 2.2867, Accuracy: 0.12, Time: 15.68 sec
…
