…
  File "/home/reuel/anaconda3/lib/python3.8/site-packages/IPython/terminal/embed.py", line 16, in <module>
    from IPython.terminal.interactiveshell import TerminalInteractiveShell
  File "/home/reuel/anaconda3/lib/python3.8/site-packages/IPython/terminal/interactiveshell.py", line 34, in <module>
    from prompt_toolkit.formatted_text import PygmentsTokens
ModuleNotFoundError: No module named 'prompt_toolkit.formatted_text'
Using: cuda
----------------------------------------------------------------
        Layer (type)               Output Shape         Param #
================================================================
            Conv2d-1         [-1, 16, 254, 254]             448
              ReLU-2         [-1, 16, 254, 254]               0
            Conv2d-3         [-1, 16, 252, 252]           2,320
              ReLU-4         [-1, 16, 252, 252]               0
         MaxPool2d-5         [-1, 16, 126, 126]               0
            Conv2d-6         [-1, 32, 124, 124]           4,640
              ReLU-7         [-1, 32, 124, 124]               0
            Conv2d-8         [-1, 32, 122, 122]           9,248
              ReLU-9         [-1, 32, 122, 122]               0
        MaxPool2d-10           [-1, 32, 61, 61]               0
           Conv2d-11           [-1, 64, 59, 59]          18,496
             ReLU-12           [-1, 64, 59, 59]               0
           Conv2d-13           [-1, 64, 57, 57]          36,928
             ReLU-14           [-1, 64, 57, 57]               0
        MaxPool2d-15           [-1, 64, 28, 28]               0
           Conv2d-16          [-1, 128, 26, 26]          73,856
             ReLU-17          [-1, 128, 26, 26]               0
           Conv2d-18          [-1, 128, 24, 24]         147,584
             ReLU-19          [-1, 128, 24, 24]               0
        MaxPool2d-20          [-1, 128, 12, 12]               0
           Conv2d-21          [-1, 256, 10, 10]         295,168
             ReLU-22          [-1, 256, 10, 10]               0
           Conv2d-23            [-1, 256, 8, 8]         590,080
             ReLU-24            [-1, 256, 8, 8]               0
        MaxPool2d-25            [-1, 256, 4, 4]               0
          Flatten-26                 [-1, 4096]               0
          Dropout-27                 [-1, 4096]               0
           Linear-28                  [-1, 256]       1,048,832
             ReLU-29                  [-1, 256]               0
          Dropout-30                  [-1, 256]               0
           Linear-31                   [-1, 10]           2,570
================================================================
Total params: 2,230,170
Trainable params: 2,230,170
Non-trainable params: 0
----------------------------------------------------------------
Input size (MB): 0.75
Forward/backward pass size (MB): 59.16
Params size (MB): 8.51
Estimated Total Size (MB): 68.42
----------------------------------------------------------------
Epoch: [0], Test Loss: 2.2907, Accuracy: 0.29, Time: 18.04 sec
…
